{"architecture":{"class_name":"Functional","config":{"name":"sequential","layers":[{"class_name":"InputLayer","config":{"batch_input_shape":[null,9,11,1],"dtype":"float32","sparse":false,"ragged":false,"name":"input_1"},"name":"input_1","inbound_nodes":[]},{"class_name":"Conv2D","config":{"name":"conv2d","trainable":true,"batch_input_shape":[null,9,11,1],"dtype":"float32","filters":3,"kernel_size":[3,3],"strides":[1,1],"padding":"same","data_format":"channels_last","dilation_rate":[1,1],"groups":1,"activation":"linear","use_bias":true,"kernel_initializer":{"class_name":"GlorotUniform","config":{"seed":null}},"bias_initializer":{"class_name":"Zeros","config":{}},"kernel_regularizer":{"class_name":"L2","config":{"l2":0.0}},"bias_regularizer":null,"activity_regularizer":null,"kernel_constraint":null,"bias_constraint":null},"name":"conv2d","inbound_nodes":[[["input_1",0,0,{}]]]},{"class_name":"BatchNormalization","config":{"name":"batch_normalization","trainable":true,"dtype":"float32","axis":[3],"momentum":0.99,"epsilon":0.001,"center":true,"scale":true,"beta_initializer":{"class_name":"Zeros","config":{}},"gamma_initializer":{"class_name":"Ones","config":{}},"moving_mean_initializer":{"class_name":"Zeros","config":{}},"moving_variance_initializer":{"class_name":"Ones","config":{}},"beta_regularizer":null,"gamma_regularizer":null,"beta_constraint":null,"gamma_constraint":null},"name":"batch_normalization","inbound_nodes":[[["conv2d",0,0,{}]]]},{"class_name":"Activation","config":{"name":"activation","trainable":true,"dtype":"float32","activation":"relu"},"name":"activation","inbound_nodes":[[["batch_normalization",0,0,{}]]]},{"class_name":"Conv2D","config":{"name":"conv2d_1","trainable":true,"dtype":"float32","filters":8,"kernel_size":[3,3],"strides":[1,1],"padding":"same","data_format":"channels_last","dilation_rate":[1,1],"groups":1,"activation":"linear","use_bias":true,"kernel_initializer":{"class_name":"GlorotUniform","config":{"seed":null}},"bias_initializer":{"class_name":"Zeros","config":{}},"kernel_regularizer":null,"bias_regularizer":null,"activity_regularizer":null,"kernel_constraint":null,"bias_constraint":null},"name":"conv2d_1","inbound_nodes":[[["activation",0,0,{}]]]},{"class_name":"BatchNormalization","config":{"name":"batch_normalization_1","trainable":true,"dtype":"float32","axis":[3],"momentum":0.99,"epsilon":0.001,"center":true,"scale":true,"beta_initializer":{"class_name":"Zeros","config":{}},"gamma_initializer":{"class_name":"Ones","config":{}},"moving_mean_initializer":{"class_name":"Zeros","config":{}},"moving_variance_initializer":{"class_name":"Ones","config":{}},"beta_regularizer":null,"gamma_regularizer":null,"beta_constraint":null,"gamma_constraint":null},"name":"batch_normalization_1","inbound_nodes":[[["conv2d_1",0,0,{}]]]},{"class_name":"Activation","config":{"name":"activation_1","trainable":true,"dtype":"float32","activation":"relu"},"name":"activation_1","inbound_nodes":[[["batch_normalization_1",0,0,{}]]]},{"class_name":"ZeroPadding2D","config":{"name":"zero_padding2d","trainable":true,"dtype":"float32","padding":[[1,1],[1,1]],"data_format":"channels_last"},"name":"zero_padding2d","inbound_nodes":[[["activation_1",0,0,{}]]]},{"class_name":"Conv2D","config":{"name":"conv2d_2","trainable":true,"dtype":"float32","filters":16,"kernel_size":[3,3],"strides":[1,1],"padding":"same","data_format":"channels_last","dilation_rate":[1,1],"groups":1,"activation":"linear","use_bias":true,"kernel_initializer":{"class_name":"GlorotUniform","config":{"seed":null}},"bias_initializer":{"class_name":"Zeros","config":{}},"kernel_regularizer":null,"bias_regularizer":null,"activity_regularizer":null,"kernel_constraint":null,"bias_constraint":null},"name":"conv2d_2","inbound_nodes":[[["zero_padding2d",0,0,{}]]]},{"class_name":"BatchNormalization","config":{"name":"batch_normalization_2","trainable":true,"dtype":"float32","axis":[3],"momentum":0.99,"epsilon":0.001,"center":true,"scale":true,"beta_initializer":{"class_name":"Zeros","config":{}},"gamma_initializer":{"class_name":"Ones","config":{}},"moving_mean_initializer":{"class_name":"Zeros","config":{}},"moving_variance_initializer":{"class_name":"Ones","config":{}},"beta_regularizer":null,"gamma_regularizer":null,"beta_constraint":null,"gamma_constraint":null},"name":"batch_normalization_2","inbound_nodes":[[["conv2d_2",0,0,{}]]]},{"class_name":"Activation","config":{"name":"activation_2","trainable":true,"dtype":"float32","activation":"relu"},"name":"activation_2","inbound_nodes":[[["batch_normalization_2",0,0,{}]]]},{"class_name":"ZeroPadding2D","config":{"name":"zero_padding2d_1","trainable":true,"dtype":"float32","padding":[[1,1],[1,1]],"data_format":"channels_last"},"name":"zero_padding2d_1","inbound_nodes":[[["activation_2",0,0,{}]]]},{"class_name":"Conv2D","config":{"name":"conv2d_3","trainable":true,"dtype":"float32","filters":32,"kernel_size":[3,3],"strides":[1,1],"padding":"same","data_format":"channels_last","dilation_rate":[1,1],"groups":1,"activation":"linear","use_bias":true,"kernel_initializer":{"class_name":"GlorotUniform","config":{"seed":null}},"bias_initializer":{"class_name":"Zeros","config":{}},"kernel_regularizer":null,"bias_regularizer":null,"activity_regularizer":null,"kernel_constraint":null,"bias_constraint":null},"name":"conv2d_3","inbound_nodes":[[["zero_padding2d_1",0,0,{}]]]},{"class_name":"BatchNormalization","config":{"name":"batch_normalization_3","trainable":true,"dtype":"float32","axis":[3],"momentum":0.99,"epsilon":0.001,"center":true,"scale":true,"beta_initializer":{"class_name":"Zeros","config":{}},"gamma_initializer":{"class_name":"Ones","config":{}},"moving_mean_initializer":{"class_name":"Zeros","config":{}},"moving_variance_initializer":{"class_name":"Ones","config":{}},"beta_regularizer":null,"gamma_regularizer":null,"beta_constraint":null,"gamma_constraint":null},"name":"batch_normalization_3","inbound_nodes":[[["conv2d_3",0,0,{}]]]},{"class_name":"Activation","config":{"name":"activation_3","trainable":true,"dtype":"float32","activation":"relu"},"name":"activation_3","inbound_nodes":[[["batch_normalization_3",0,0,{}]]]},{"class_name":"ZeroPadding2D","config":{"name":"zero_padding2d_2","trainable":true,"dtype":"float32","padding":[[1,1],[1,1]],"data_format":"channels_last"},"name":"zero_padding2d_2","inbound_nodes":[[["activation_3",0,0,{}]]]},{"class_name":"Conv2D","config":{"name":"conv2d_4","trainable":true,"dtype":"float32","filters":32,"kernel_size":[3,3],"strides":[1,1],"padding":"same","data_format":"channels_last","dilation_rate":[1,1],"groups":1,"activation":"linear","use_bias":true,"kernel_initializer":{"class_name":"GlorotUniform","config":{"seed":null}},"bias_initializer":{"class_name":"Zeros","config":{}},"kernel_regularizer":null,"bias_regularizer":null,"activity_regularizer":null,"kernel_constraint":null,"bias_constraint":null},"name":"conv2d_4","inbound_nodes":[[["zero_padding2d_2",0,0,{}]]]},{"class_name":"BatchNormalization","config":{"name":"batch_normalization_4","trainable":true,"dtype":"float32","axis":[3],"momentum":0.99,"epsilon":0.001,"center":true,"scale":true,"beta_initializer":{"class_name":"Zeros","config":{}},"gamma_initializer":{"class_name":"Ones","config":{}},"moving_mean_initializer":{"class_name":"Zeros","config":{}},"moving_variance_initializer":{"class_name":"Ones","config":{}},"beta_regularizer":null,"gamma_regularizer":null,"beta_constraint":null,"gamma_constraint":null},"name":"batch_normalization_4","inbound_nodes":[[["conv2d_4",0,0,{}]]]},{"class_name":"Activation","config":{"name":"activation_4","trainable":true,"dtype":"float32","activation":"relu"},"name":"activation_4","inbound_nodes":[[["batch_normalization_4",0,0,{}]]]},{"class_name":"MaxPooling2D","config":{"name":"max_pooling2d","trainable":true,"dtype":"float32","pool_size":[2,2],"padding":"valid","strides":[2,2],"data_format":"channels_last"},"name":"max_pooling2d","inbound_nodes":[[["activation_4",0,0,{}]]]},{"class_name":"Flatten","config":{"name":"flatten","trainable":true,"dtype":"float32","data_format":"channels_last"},"name":"flatten","inbound_nodes":[[["max_pooling2d",0,0,{}]]]},{"class_name":"Dense","config":{"name":"dense","trainable":true,"dtype":"float32","units":96,"activation":"linear","use_bias":true,"kernel_initializer":{"class_name":"GlorotUniform","config":{"seed":null}},"bias_initializer":{"class_name":"Zeros","config":{}},"kernel_regularizer":null,"bias_regularizer":null,"activity_regularizer":null,"kernel_constraint":null,"bias_constraint":null},"name":"dense","inbound_nodes":[[["flatten",0,0,{}]]]},{"class_name":"BatchNormalization","config":{"name":"batch_normalization_5","trainable":true,"dtype":"float32","axis":[1],"momentum":0.99,"epsilon":0.001,"center":true,"scale":true,"beta_initializer":{"class_name":"Zeros","config":{}},"gamma_initializer":{"class_name":"Ones","config":{}},"moving_mean_initializer":{"class_name":"Zeros","config":{}},"moving_variance_initializer":{"class_name":"Ones","config":{}},"beta_regularizer":null,"gamma_regularizer":null,"beta_constraint":null,"gamma_constraint":null},"name":"batch_normalization_5","inbound_nodes":[[["dense",0,0,{}]]]},{"class_name":"Activation","config":{"name":"activation_5","trainable":true,"dtype":"float32","activation":"relu"},"name":"activation_5","inbound_nodes":[[["batch_normalization_5",0,0,{}]]]},{"class_name":"Dropout","config":{"name":"dropout","trainable":true,"dtype":"float32","rate":0.5,"noise_shape":null,"seed":null},"name":"dropout","inbound_nodes":[[["activation_5",0,0,{}]]]},{"class_name":"Dense","config":{"name":"dense_1","trainable":true,"dtype":"float32","units":128,"activation":"linear","use_bias":true,"kernel_initializer":{"class_name":"GlorotUniform","config":{"seed":null}},"bias_initializer":{"class_name":"Zeros","config":{}},"kernel_regularizer":null,"bias_regularizer":null,"activity_regularizer":null,"kernel_constraint":null,"bias_constraint":null},"name":"dense_1","inbound_nodes":[[["dropout",0,0,{}]]]},{"class_name":"BatchNormalization","config":{"name":"batch_normalization_6","trainable":true,"dtype":"float32","axis":[1],"momentum":0.99,"epsilon":0.001,"center":true,"scale":true,"beta_initializer":{"class_name":"Zeros","config":{}},"gamma_initializer":{"class_name":"Ones","config":{}},"moving_mean_initializer":{"class_name":"Zeros","config":{}},"moving_variance_initializer":{"class_name":"Ones","config":{}},"beta_regularizer":null,"gamma_regularizer":null,"beta_constraint":null,"gamma_constraint":null},"name":"batch_normalization_6","inbound_nodes":[[["dense_1",0,0,{}]]]},{"class_name":"Activation","config":{"name":"activation_6","trainable":true,"dtype":"float32","activation":"relu"},"name":"activation_6","inbound_nodes":[[["batch_normalization_6",0,0,{}]]]},{"class_name":"Dropout","config":{"name":"dropout_1","trainable":true,"dtype":"float32","rate":0.5,"noise_shape":null,"seed":null},"name":"dropout_1","inbound_nodes":[[["activation_6",0,0,{}]]]},{"class_name":"Dense","config":{"name":"dense_2","trainable":true,"dtype":"float32","units":1,"activation":"linear","use_bias":true,"kernel_initializer":{"class_name":"GlorotUniform","config":{"seed":null}},"bias_initializer":{"class_name":"Zeros","config":{}},"kernel_regularizer":null,"bias_regularizer":null,"activity_regularizer":null,"kernel_constraint":null,"bias_constraint":null},"name":"dense_2","inbound_nodes":[[["dropout_1",0,0,{}]]]},{"class_name":"BatchNormalization","config":{"name":"batch_normalization_7","trainable":true,"dtype":"float32","axis":[1],"momentum":0.99,"epsilon":0.001,"center":true,"scale":true,"beta_initializer":{"class_name":"Zeros","config":{}},"gamma_initializer":{"class_name":"Ones","config":{}},"moving_mean_initializer":{"class_name":"Zeros","config":{}},"moving_variance_initializer":{"class_name":"Ones","config":{}},"beta_regularizer":null,"gamma_regularizer":null,"beta_constraint":null,"gamma_constraint":null},"name":"batch_normalization_7","inbound_nodes":[[["dense_2",0,0,{}]]]},{"class_name":"Activation","config":{"name":"activation_7","trainable":true,"dtype":"float32","activation":"sigmoid"},"name":"activation_7","inbound_nodes":[[["batch_normalization_7",0,0,{}]]]}],"input_layers":[["input_1",0,0]],"output_layers":[["activation_7",0,0]]},"keras_version":"2.10.0","backend":"tensorflow"},"image_data_format":"channels_last","input_shapes":[[9,11,1]],"output_shapes":[[1]],"tests":[{"inputs":[{"shape":[9,11,1],"values":["…"]}],"outputs":[{"shape":[1],"values":["AaG3Pg=="]}]}],"trainable_params":{"conv2d":{"weights":["3A8cv/AZyz5S08q8XBzOPUvwUr1A7fE9/2nNPXaQ/LzX1Hi+uColPcWGxz5z3Vu+oxviva3ZLT5tsVs9e+MdPohV5b4zPw8+vBO/PnvjZD5LrjK+juqovv3qrT551qK+1U1sPpexhz6Z+iY+"],"bias":["X/fKPUmk5D0Wvoa+"]},"batch_normalization":{"moving_mean":["oIvRPehP8T2FY4K+"],"moving_variance":["txuxOue7eTruQxQ7"],"beta":["xtS9PC5/yj357UQ+"],"gamma":["D62aP4YtcD8YN2Y/"]},"conv2d_1":{"weights":["…","GNPGvZKlPD5yZY09qfpJPq2GvrzmWJU9Ex8lPpAdXT7dOQk9kVoTPZb7373eHby9Cu+LPSDM1T2FrPw89hxxu6Yhojvz7Pw9Js9Evhx/Ar6JNYI+lFbFvPrcKT6G/ic+"],"bias":["mModvW9p/70rkLi9oPB0PGf7Nr0yfDm9oClQPcL/X7s="]},"batch_normalization_1":{"moving_mean":["aepPvgfVHL40D1W+GwT8PDpH6b0Jg3a+xi6mPWJBjT4="],"moving_variance":["2D+BPgFW0D3SWl4+xVxpPrLvNz6I91Y+2pMLPnhoiT4="],"beta":["0gInvtxr77z2/oC9teYdPEUgPb0ZYha+C5KUPaRCAT4="],"gamma":["aUWnP7UfnT85OJE/JClCP1OCfD+vtJc//eRDP2m7PD8="]},"conv2d_2":{"weights":["…","…","…","…","…","…"],"bias":["nw4IvSZCMT3FNou93CIZPTVBQj3xJIk9BKr4vKXpFL5tB709Gkh0OkxA/LxiMq69i2mDPIzrmr1G/Z29osUbPQ=="]},"batch_normalization_2":{"moving_mean":["2fvbvubw/bzY3Vu+XmOAvnjW9r1RE8K9o5t/vj7F075F7x6+MyuhvlH0W72n75W+MHhfvm+sO77H1hI9K+BNvg=="],"moving_variance":["MC+oPrdQhz7fiVM+yxQgP/IprD4IyT4+aXBCPqLgjj4L2JM+2c+6PsrSYD5WM8o+WvxTPsXdVT44vFY+B7NCPg=="],"beta":["v5pEvhYdqb0aQAu9ZVZrvfBUVLzPW2G97hfHvRB0tr3Qvr69ArX+vPf+Er1Q7Yq9dQYtvVMt8b01xTW+hw2POw=="],"gamma":["TFNkP021iz8Ee5A/iChnP6Eghj+5kp8/83VnP3gFXT8y4ZE/r6iZP0fDcz9HwY4/eN5wPxAHUz8oIj0/1P2VPw=="]},"conv2d_3":{"weights":["…","…","…","…","…","…","…","…","…","…","…","…","…","…","…","…","…","…","…","…","…","…","…","…"],"bias":["ZZ5OPU/YEz3JOA+9rY9ZPJVzdDwzkBu80w0JvUntaT2AZ0M95A7VvMD5yrxrjvs8gwUbPYEZFD1kXEA8SpqrvGYHzrsC19y6aeozPaY3sjxhToa8FYVQPQKlSDy6JBe9JNZVvECN7rpDTfw7sNFnu+DoEjzJwI476EIDu+7IZzs="]},"batch_normalization_3":{"moving_mean":["58kRvkYi2b4pQi2/KzIDvcNOUr73f5G+B6fmvSay1L2Me4++Y/QRP7DB0L3Yue699daSvopO1b38bgS/uMKHPTA0c77eFla+cwg1PuT5Zr1QRQW/nS2Tvca5676HrOO9YWENP88lWr7VKOS9c4favmxFJD6KWtu+f+kqvxLdn74="],"moving_variance":["b3+NPuuUoz5GiPI+sB9/Pg0FtT5Q6qo+7YGSPqcmiT5I46k+EOfaPtE8hz4t3ok+q5O2PsiJiz4ZNd0+8mWTPuwjrT5nXr8+Z5pNPjdWij5xva8+luZ7PkO1wz5nTnU+QqD1PmT/gD6EmLU+cN6nPj3Vjz4+Pts+lFuJPk6lxj4="],"beta":["WTdCvWc6GbzhMO29VuW6vefqSDznwLO9osKJvVhDJL5IKQq8y9iXvYiQ6r3E0SG+cnaxvXppT70yf7g9WDG8u7on6b15XCy+ysAXPfWbEL2Z2zC+K0oAvq687L12ZZK6hKdGPU8huj3IXKe9lDpwvdJzG76pM6C9Dmfzvc4EBr4="],"gamma":["HUGDP6yXlD/P8po/VFZxP9/7iD/BUYA/UtV7P9ONXT9qFn0/O4pjP8rGWD+TNW8/kZKYP/knhD/uPIg/1ZWOP8ghiT9XOoY/bYOKP/9ddD/E1FU/6LeHP/D4ej9h/VY/quNLP8sxsD/iyIs/TGGCP+EbTz/aQZA/DO9wP/oagD8="]},"conv2d_4":{"weights":["…","…","…","…","…","…","…","…","…","…","…","…","…","…","…","…","…","…","…","…","…","…","…","…","…","…","…","…","…","…","…","…","…","…","…","…","…","…","…","…","…","…","…","…","…","…","…","…"],"bias":["cySAPFSRX7zJoYi7UypQPIDxzzlAASU8czuqPOrS9jkoTog8UC6ePOqgkDsA5/s71tEXPP02OruOGVu849iQOyphbTzRDQa8kQVzO1LCvTtXyD88GVCXuv3Lvbx9MUi8A3UpPKU1GTyxXOg7JBwjPG4QmLwJH3O8Ns/SOyQ/7rs="]},"batch_normalization_4":{"moving_mean":["WVNcvzGXo7/WYJG/Xw7ivxgH2b8XA8S/Cjugv/KKkb/jyMu/l/iyvxyeY79lZ6O/qpq7vwiQ2L/L6L6/srmqv+v/or/VObe/vHZ9v0MSqr+qF7G/8nq9v3kd5r8KsLK/8uOYv0UKrr/YRL+/ipWGvwM+vb9Wxoq/9rbLvxXnCcA="],"moving_variance":["LQPtP05iAUCiHw9AhG4gQO6Kvz8IQwpA0W3YPwCW8j+z1QxApUrbP8nI8z846uo/YRT2P7XREUBv1+s/ErADQGi8AkBEef0/bFcDQBI/H0CRaR5AbGgFQLAGJEA8t9A/NKjlP/s0BkBbKhtAFN7xP3XuIkD1L98/be8vQL2VOkA="],"beta":["2B/FvX3EDL5A54G+WTwRvjCmI77JUVC+qIEEvjVLQr5l2zO+hYzwvVZLXL4MzDy+2q/8vZSwIL7oLfi964Mwvjsxd77UI/y90oJsvinnGr6tAmm+mrccvl4OuL043ya+Pmagvo85QL7Z4eW9JWYPvs3YRL6XYfK9PX8KvqD0KL4="],"gamma":["oeiKP0Zldz/53HM//LaEP5oZYT99GG4/ichoP2G9dT+kIHA/LTtwP8zNNj+Zk3U/dGqKP2jChT+a1oU/VSx1PzOmjz8r6nU/52+EP/RbhD/pSZU/Gyl2P9p/mT8KLIc/b1prP1aPbD9+T5A/knZiP60Hiz+P7Yo/w81rP9Lfez8="]},"dense":{"weights":["…","…","…","…","…","…","…","…","…","…","…","…","…","…","…","…","…","…","…","…","…","…","…","…","…","…","…","…","…","…","…","…","…","…","…","…","…","…","…","…","…","…","…","…","…","…","…","…","…","…","…","…","…","…","…","…","…","…","…","…","…","…","…","…","…","…","…","…","…","…","…","…","…","…","…","…","…","…","…","…","…","…","…","…","…","…","…","…","…","…","…","…","…","…","…","…","…","…","…","…","…","…","…","…","…","…","…","…","…","…","…","…","…","…","…","…","…","…","…","…","…","…","…","…","…","…","…","…","…","…","…","…","…","…","…","…","…","…","…","…","…","…","…","…","…","…","…","…","…","…","…","…","…","…","…","…","…","…","…","…","…","…","…","…","…","…","…","…","…","…","…","…","…","…","…","…","…","…","…","…","…","…","…","…","…","…","…","…","…","…","…","…","…","…","…","…","…","…","…","…","…","…","…","…","…","…","…","…","…","…","…","…","…","…","…","…","…","…","…","…","…","…","…","…","…","…","…","…","…","…","…","…","…","…","…","…","…","…","…","…","…","…","…","…","…","…","…","…","…","…","…","…","…","…","…","…","…","…","…","…","…","…","…","…","…","…","…","…","…","…","…","…","…","…","…","…","…","…","…","…","…","…","…","…","…","…","…","…","…","…","…","…","…","…","…","…","…","…","…","…","…","…","…","…","…","…","…","…","…","…","…","…","…","…","…","…","…","…","…","…","…","…","…","…","…","…","…","…","…","…","…","…","…","…","…","…","…","…","…","…","…","…","…","…","…","…","…","…","…","…","…","…","…","…","…","…","…","…","…","…","…","…","…","…","…","…","…","…","…","…","…","…","…","…","…","…","…","…","…","…","…","…","…","…","…","…","…","…","…","…","…","…","…","…","…","…","…","…","…","…","…","…","…","…","…","…","…","…","…","…","…","…","…","…","…","…","…","…","…","…","…","…","…","…","…","…","…","…","…","…","…","…","…","…","…","…","…","…","…","…","…","…","…","…","…","…","…","…","…","…","…","…","…","…","…","…","…","…","…","…","…","…","…","…","…","…","…","…","…","…","…","…","…","…","…","…","…","…","…","…","…","…","…","…","…","…","…","…","…","…","…","…","…","…","…","…","…","…","…","…","…","…","…","…","…","…","…","…","…","…","…","…","…","…","…","…","…","…","…","…","…","…","…","…","…","…","…","…","…","…","…","…","…","…","…","…","…","…","…","…","…","…","…","…","…","…","…","…","…","…","…","…","…","…","…","…","…","…","…","…","…","…","…","…","…","…","…","…","…","…","…","…","…","…","…","…","…","…","…","…","…","…","…","…","…","…","…","…","…","…","…","…","…","…","…","…","…","…","…","…","…","…","…","…","…","…","…","…","…","…","…","…","…","…","…","…","…","…","…","…","…","…","…","…","…","…","…","…","…","…","…","…","…","…","…","…","…","…","…","…","…","…","…","…","…","…","…","…","…","…","…","…","…","…","…","…","…","…","…","…","…","…","…","…","…","…","…","…","…","…","…","…","…","…","…","…","…","…","…","…","…","…","…","…","…","…","…","…","…","…","…","…","…","…","…","…","…","…","…","…","…","…","…","…","…","…","…","…","…","…","…","…","…","…","…","…","…","…","…","…","…","…","…","…","…","…","…","…","…","…","…","…","…","…","…","…","…","…","…","…","…","…","…","…","…","…","…","…","…","…","…","…","…","…","…","…","…","…","…","…","…","…","…","…","…","…","…","…","…","…","…","…","…","…","…","…","…","…","…","…","…","…","…","…","…","…","…","…","…","…","…","…","…","…","…","…","…","…","…","…","…","…","…","…","…","…","…","…","…","…","…","…","…","…","…","…","…","…","…","…","…","…","…","…","…","…","…","…","…","…","…","…","…","…","…","…","…","…","…","…","…","…","…","…","…","…","…","…","…","…","…","…","…","…","…","…","…","…","…","…","…","…","…","…","…","…","…","…","…","…","…","…","…","…","…","…","…","…","…","…","…","…","…","…","…","…","…","…","…","…","…","…","…","…","…","…"],"bias":["…"]},"batch_normalization_5":{"moving_mean":["…"],"moving_variance":["…"],"beta":["…"],"gamma":["…"]},"dense_1":{"weights":["…","…","…","…","…","…","…","…","…","…","…","…","…","…","…","…","…","…","…","…","…","…","…","…","…","…","…","…","…","…","…","…","…","…","…","…","…","…","…","…","…","…","…","…","…","…","…","…","…","…","…","…","…","…","…","…","…","…","…","…","…","…","…","…"],"bias":["…"]},"batch_normalization_6":{"moving_mean":["…"],"moving_variance":["…"],"beta":["…"],"gamma":["…"]},"dense_2":{"weights":["…"],"bias":["N/vaOg=="]},"batch_normalization_7":{"moving_mean":["nWTmvg=="],"moving_variance":["SzpRQg=="],"beta":["uztMvw=="],"gamma":["iOu2QA=="]}},"hash":"d6a27dd382a97399d6254e379cb9f4335edfb57e5371a9f4a385813c93ee26cc"}